agemodel.txt_02.npy (npy, 1536 bytes, 1 tensors)

array (column-major) f8 [7, 26]
000000 81 42 9a 67 85 64 0d 40 14 87 dc ce d6 8d 03 c0
       3.674082574267516 -2.444257370095224
000010 87 6c 91 46 6a 84 c9 bf 0f f9 60 25 a3 7a 09 40
       -0.1993534893580071 3.184881488820913
000020 90 6a d1 6c a1 53 0a c0 ac eb aa 76 15 69 0e c0
       -3.2908352376374026 -3.8013104697142435
000030 b7 ba 17 aa 18 5e 11 40 ec 4b f6 ce ec 43 06 40
       4.341890962313008 2.7831665200151203
000040 ca 73 af 73 57 7f 00 c0 f4 43 f6 75 25 7d 26 40
       -2.0621785200041574 11.244426428138446
000050 72 19 81 37 76 83 21 c0 4c 95 1a e1 b5 32 0f c0
       -8.756761297711567 -3.899760969756846
000060 02 c3 45 07 45 de 13 c0 42 1a 0a fb 98 36 15 40
       -4.967060197480125 5.303317949763882
000070 42 b3 6e 6c a9 52 e7 bf 02 f5 84 a1 fa 2d ed bf
       -0.7288405530758626 -0.9118626742053098
000080 19 7b 2e 3a c9 90 2a 40 7e b7 d5 9e 4b af 14 c0
       13.282785242246563 -5.171186906618344
000090 a4 5c 98 5a 7b 1b e3 bf 5b e6 c9 81 60 85 dc bf
       -0.597104718154601 -0.44564068483996316
0000a0 18 3e 25 63 eb 97 f8 bf d8 e4 1f 55 fe 16 00 c0
       -1.5370897171850455 -2.0112272882803204
0000b0 5a ff d6 52 d7 2f d6 bf 00 e9 92 b5 7e 90 25 40
       -0.3466699894888642 10.782216715033883
0000c0 54 e5 39 a4 a3 1f 13 c0 c4 0f c8 1f b9 68 e0 bf
       -4.7808976803147125 -0.5127835865719068
0000d0 c3 9d e7 11 d0 e8 e3 3f 34 7e 9f 66 a8 6e 05 c0
       0.6221695279791039 -2.67903213667139
0000e0 19 ba b9 b0 4c d4 05 c0 5b 4f 2d 2e e8 3b d7 bf
       -2.7286619002036443 -0.36303143033477675
0000f0 62 61 03 28 17 73 1d 40 45 d8 c0 b0 32 35 00 c0
       7.362393021780322 -2.025975590596348
000100 e6 22 98 bf 83 7e d0 bf d3 4f 6f 76 79 7e f1 3f
       -0.25772184095744277 1.0933775545463404
000110 d5 6a 48 4a 81 1b 04 c0 b9 83 b5 b6 d8 4c fc bf
       -2.513430195174218 -1.7687613617965623
000120 1c 9d 2b ba 75 47 e4 bf 71 41 7a 01 93 b4 12 40
       -0.633723128904339 4.676342032515422
000130 b6 aa d0 68 fa 56 99 bf 2a ec 71 0a b3 38 de 3f
       -0.024745857856184293 0.4722106554033326
000140 e1 e7 e7 c6 ba 05 e8 3f c1 1c 95 7b 30 02 0b c0
       0.7506994137650019 -3.376069035995528
000150 9f a5 94 95 a8 5e ed bf a7 1f 58 f0 6d a7 f1 bf
       -0.9178049966332543 -1.1033763302275277
000160 02 74 f5 65 16 c8 15 40 f2 2d 52 5c 13 bc 00 40
       5.445397942644378 2.091833802469176
000170 51 3c 79 d9 3a 1a d1 bf ce 03 0d 17 aa e9 e7 bf
       -0.26722594487813917 -0.7472734880649285
000180 3b 97 f5 34 d2 10 13 c0 44 45 81 6e a3 6f f1 bf
       -4.766426875581426 -1.0897554699516414
000190 6a f7 ec 39 0f 87 eb 3f 5d a9 33 80 92 da 06 40
       0.8602367526398045 2.8567247405782568
0001a0 32 45 15 e7 9f 6e 10 40 e8 7f 35 a5 68 3b 88 3f
       4.108031855271564 0.011832063237932247
0001b0 2c cd 20 21 9b f4 f1 bf b1 fa 0e b9 3a d7 10 c0
       -1.1222182554309468 -4.210184947528135
0001c0 59 ad 20 02 57 99 c8 bf 64 7b a3 95 6f dd f0 3f
       -0.19217956165207786 1.0540614934213517
0001d0 bd bc eb d3 3e 87 1b 40 fa 2f 3f 8b b4 18 f5 3f
       6.882075606597195 1.3185315551118024
0001e0 e6 f6 76 93 0b 59 de bf 9a 86 8e f6 0c e3 01 c0
       -0.4741848888478287 -2.235864568924467
0001f0 2f ed cb c6 29 1a 15 c0 f5 40 dc c5 58 50 e1 3f
       -5.2755499898878915 0.5410579552135731
000200 90 3b d9 b5 ac c2 01 40 92 7a 27 92 81 97 17 40
       2.2200559813422345 5.897955211314768
000210 34 89 1e f6 aa c9 d3 3f b2 98 51 27 fa 32 f7 bf
       0.30918382678113976 -1.449945596302808
000220 9f 6f 48 c8 26 f7 fc bf 3b 9c b1 de d5 9a 12 c0
       -1.810339720111166 -4.651206473913642
000230 0a 7d 5e 9d d2 19 05 40 a3 a6 b5 6d 04 af fc 3f
       2.6376087469540197 1.792728832772277
000240 b1 2b ba 3f df ac 20 40 8b c6 8c dc c4 e9 c1 3f
       8.337640754199898 0.1399465634254294
000250 29 c3 c4 22 fc 58 fc bf 7a 0e 66 4e 04 6a 12 c0
       -1.7717248304508735 -4.603532052020109
000260 f8 3d 7e a9 76 3b 28 c0 cf 23 52 ce 88 7e f0 bf
       -12.116139694843682 -1.0308921870621253
000270 21 16 d1 b9 6d 80 e5 bf b0 5f 20 d2 1c be 24 40
       -0.6719273213609008 10.37131363530338
000280 0b 11 b3 d4 08 79 19 c0 fb bf b8 18 2d 14 0e c0
       -6.3681977495473445 -3.7598516398793413
000290 24 ca dd 16 f7 f2 0e c0 b2 78 b9 b3 ff 97 21 c0
       -3.868635347980005 -8.796872726812897
0002a0 73 1d 9c 96 f1 26 01 c0 9d a0 7a 65 f6 24 0f c0
       -2.144015480651143 -3.893048088841239
0002b0 ec b4 e1 22 bc 30 2b c0 9e 42 4c cd 86 7e 22 40
       -13.595185365726557 9.247122207221135
0002c0 15 37 ad a7 80 2c 07 40 55 b4 1d 75 cc 29 16 c0
       2.8967297649131845 -5.540819005907072
0002d0 32 ea 9d 25 f5 11 2f c0 ed 7f 66 f0 46 41 03 40
       -15.53507344772979 2.4068735867767743
0002e0 57 3c 1b 39 6c fe e5 3f 6f 35 96 94 9a 89 28 c0
       0.6873074641570253 -12.268757479988123
0002f0 fe 04 90 0a 8b 7c 05 c0 1a 4f bf 47 d2 58 f5 3f
       -2.685812075157286 1.3341849138859687
000300 6b e8 41 f3 27 27 f3 3f e2 3f 61 04 34 b1 12 40
       1.1970595838779683 4.673049992023126
000310 6f e0 2c 3a a9 f3 1f 40 6c 4a 7c a7 0b 33 c5 3f
       7.987950238217407 0.16562028577807852
000320 18 9d f2 44 e1 17 24 c0 2e b2 d8 71 c7 ca 21 40
       -10.0466405435714 8.896052892400885
000330 13 dc e7 f9 3a 6a 09 40 2a 47 92 42 92 f4 06 c0
       3.176870300663276 -2.8694195938959597
000340 ea 0e 82 9e 3b ec 1c c0 9e ad 4b a0 52 fa f5 3f
       -7.2306961790925275 1.3736139546916557
000350 cb a8 d3 d7 d5 3c 05 c0 98 24 4c da 24 7f 04 c0
       -2.654704748293715 -2.5620820097434027
000360 61 1f 8c 29 76 71 ed 3f 07 3c 10 5e 50 7d da 3f
       0.920100289485145 0.41389855562096084
000370 83 56 93 b7 ee 47 f8 3f 21 f1 45 d6 f3 83 21 40
       1.5175616427344785 8.757719703710395
000380 f8 27 45 22 f7 60 f2 3f 51 96 44 2a f6 94 dc bf
       1.1486731852223766 -0.4465918934605258
000390 66 69 05 7c 4c ca 06 c0 05 47 db d8 75 13 10 40
       -2.8487786950255893 4.019004238494522
0003a0 ff 63 bf 32 2e 26 ee 3f 7d 04 49 08 b7 10 c5 3f
       0.9421607009090848 0.1645726004080962
0003b0 85 73 09 df 60 c4 ed 3f db 4c 33 49 11 ef 06 c0
       0.9302219730558227 -2.866732189062174
0003c0 83 9c da 04 74 a0 d2 3f 28 78 68 f0 ed 83 10 c0
       0.2910432860757696 -4.128837353111557
0003d0 6a e7 bb 50 8c 59 c3 bf f8 57 8d 4f 50 77 ed 3f
       -0.1511702913483604 0.9208146623375333
0003e0 8e 10 b8 51 e1 aa 08 40 3e 41 0f e2 cb 7b 21 40
       3.083437574796398 8.741789879190602
0003f0 60 bb 5c bd b6 b9 ef bf a8 41 2d 67 f6 84 f4 3f
       -0.9914201448899398 1.282461550745305
000400 01 09 86 f2 32 ef 14 c0 9b 33 ae a9 58 ae 01 40
       -5.233592786246164 2.2101300483977417
000410 8c 40 bb 7e b4 25 f6 3f d2 36 b9 82 b7 49 f7 3f
       1.384205336613408 1.4554972750078616
000420 d0 88 b3 01 e6 e9 01 40 78 15 ec 4f 4b fc 06 c0
       2.239208234111267 -2.873190521614273
000430 07 36 5b 09 da 2c 06 40 17 aa 16 4e 29 7b 17 c0
       2.7719002467117693 -5.870274753697706
000440 a6 bd 00 23 fd 73 fa bf a1 b1 ef c0 0e d2 fb 3f
       -1.6533175818729915 1.7387836014341718
000450 5a 7b b5 e9 f2 55 07 40 fb 2a 6b 01 2e 47 20 40
       2.9169672258862365 8.139022869426745
000460 b1 7e 9e b5 87 ce fa bf 0f 79 2e 00 50 8b 00 40
       -1.675422391366663 2.068023682993164
000470 da a1 be 67 d4 59 0e c0 a2 45 1f 5c 0d 1e e5 3f
       -3.793862162118086 0.6599184798489441
000480 68 2a 61 06 ac 4c 00 40 eb 3b f8 5a bb d9 03 40
       2.03743748649622 2.4813143832211515
000490 97 18 45 dc f7 b2 03 40 59 65 28 a0 b1 50 0d c0
       2.462386818750996 -3.6644012939765784
0004a0 ed db 43 29 4a 91 00 40 58 12 36 50 36 30 1f c0
       2.070942232497592 -7.797082188892624
0004b0 d1 e1 b7 d4 1f 56 fb bf 0f 98 d7 bd 29 4e 05 40
       -1.7085264500911885 2.6631655532282887
0004c0 3c 0c 18 88 21 ec 1a 40 19 b5 2f 3a 8d 53 22 40
       6.730596662967454 9.163186853717479
0004d0 c2 6d 11 34 6a e7 00 c0 07 b0 6a e8 be da fe 3f
       -2.1129955356425123 1.9284047201899754
0004e0 c7 6e 90 d2 71 a5 22 c0 2c 8f 4f 85 90 af da bf
       -9.323134021883915 -0.41696560877447797
0004f0 2a 4e 47 2e 19 9f 0d 40 43 6c 06 15 eb 4c 1f 40
       3.702684747267786 7.825115517155669
000500 30 aa cc 7d b7 18 17 40 00 b5 2c 60 c0 06 fc 3f
       5.774137464157818 1.7516483074971916
000510 79 19 94 84 a3 55 f8 3f d8 56 16 ce b2 b7 21 40
       1.520907895932025 8.858786049105603
000520 b2 e1 2b c3 ca 43 25 c0 6f 52 14 8e 78 1a 12 c0
       -10.632406329256671 -4.525850505819661
000530 a5 31 64 cf 7c e4 0a 40 93 f3 69 5e fd 7c 1e 40
       3.3615661814166793 7.622060275284542
000540 17 1a ee 1f cd 90 f5 3f 8d 6c db 2f b4 83 f2 bf
       1.3478518721837014 -1.157154261533637
000550 a1 7c c0 f9 1c 89 04 c0 c6 f2 2c ce ef 01 04 40
       -2.5669497978083915 2.500945673701014
000560 ff 81 7e da 4b 6d 11 c0 2e 9e 83 df 27 f1 09 c0
       -4.356734670611785 -3.2427518331567375
000570 61 92 b1 e8 74 f2 f2 bf c7 d2 74 4e 82 c5 91 bf
       -1.184193524322062 -0.01735499957904343
000580 6a 66 d8 48 c8 90 fe bf 9a 01 46 1e 10 d2 23 c0
       -1.910347256233218 -9.910279222531972
000590 9a 47 95 47 8c b0 04 40 ac 45 c2 c6 d0 3b fd 3f
       2.586205062144427 1.8271034015673235
0005a0 c0 81 73 1f 66 28 f0 3f 96 22 e2 09 5c dc 0a 40
       1.0098630169451184 3.3575974247108418
