emomodel.txt_02.npy (npy, 1120 bytes, 1 tensors)

array (column-major) f8 [5, 26]
000000 49 06 e0 bb 2d 27 26 40 03 7b 2c 00 f2 cd c5 bf
       11.076520796868083 -0.17034745224460587
000010 f1 da 2e 95 1a 08 ef bf 11 5c 29 14 43 e5 38 c0
       -0.9697392381411573 -24.895554790589873
000020 b1 44 f2 0f e3 34 2a 40 3a 04 24 27 08 84 0b 40
       13.103294847797175 3.439468675409924
000030 ec 6a 56 68 50 3c f1 bf 6c 54 86 b9 1b 3a e5 bf
       -1.077225120133046 -0.6633432982950018
000040 0d 61 cc 38 14 8b 21 c0 f9 8f fc 99 9d 85 16 40
       -8.771638655613538 5.630484014549432
000050 b6 f4 41 58 35 a1 fa bf 94 42 22 53 08 b4 f5 bf
       -1.6643575141491005 -1.3564532515921757
000060 fd 12 78 0d ca 37 e1 bf ec ce 34 1b 5e 04 09 40
       -0.5380602133814986 3.127132618474084
000070 89 3e ac 76 d9 10 f0 3f 65 56 51 2c 8b 67 0b c0
       1.0041136394173995 -3.4255584204027394
000080 50 74 9c 6f b9 66 e9 bf 63 37 58 28 b0 07 eb bf
       -0.7937895946412343 -0.8446884906750082
000090 c3 9f 10 41 6d 8b 21 40 bd 84 cf 47 82 34 08 c0
       8.772317918090158 -3.0256391153530715
0000a0 88 f3 6b de b6 0f 14 c0 f7 21 ad 27 c7 90 e2 bf
       -5.015346026743721 -0.5801730894973492
0000b0 d4 a1 87 8c 01 d4 f1 bf dd 30 46 13 36 69 25 40
       -1.1142592896886656 10.705490686720106
0000c0 cf 8b 23 64 80 d0 0c c0 47 d3 ef ae d0 79 0f c0
       -3.601807386717588 -3.934480063146484
0000d0 74 cd de fa ff e7 c8 bf 0f 39 c2 f2 cf 39 ec bf
       -0.19458007573630776 -0.8820571652775316
0000e0 9e 44 83 05 ec ec 21 40 ef 65 55 be c1 d3 0d c0
       8.962738201402598 -3.7283968801318603
0000f0 e5 6a 49 07 39 7f 01 c0 ad 81 5c 20 7e 6b e2 3f
       -2.1871204919128666 0.5756216651971521
000100 fe 07 f3 73 c0 af e5 bf 52 ae 67 98 6d 42 15 40
       -0.677704073394352 5.3148711980134795
000110 1d 37 d7 b1 d5 5a 06 c0 b0 db 24 f3 9c 2c 04 c0
       -2.794352902775144 -2.5217837329505173
000120 ef e2 27 49 7a c6 d8 3f e3 9e 77 e1 ae 16 f0 bf
       0.38711411613580443 -1.0055378730120814
000130 d2 d7 b7 22 e3 39 20 40 69 c4 16 4f b1 44 13 c0
       8.113061032239703 -4.817082629932977
000140 5d 41 65 1d c9 79 f6 bf 18 bf 74 35 a2 55 e3 3f
       -1.4047328136694752 0.6042033237517641
000150 f1 87 89 af 9c c9 e5 bf e3 84 c8 c1 59 47 18 40
       -0.6808608463727507 6.069678333152498
000160 f6 b5 c9 a5 c2 d3 10 c0 4a 58 85 ba 65 80 ee bf
       -4.206797209202241 -0.953173507975188
000170 18 1c c5 3d c3 b1 e6 3f 1b a0 8e c7 19 14 e2 bf
       0.7091995436138658 -0.5649536988830762
000180 77 5e 31 9d 59 4e 18 40 53 c2 30 66 8e cd 12 c0
       6.076513725412602 -4.7007385222683125
000190 63 92 c1 f2 1a 25 01 40 77 75 e7 7a de 7d fd 3f
       2.143117805988639 1.8432297516768281
0001a0 e8 dc c1 62 b0 90 ef 3f 88 d2 1e d3 ff 01 05 c0
       0.9864122322896067 -2.6259762281209227
0001b0 7b d2 e5 1a d0 63 f5 bf 96 df 61 9b 03 bb 10 c0
       -1.3368683863347133 -4.182630946968763
0001c0 ad 2d c0 f6 ee 5b ea bf 44 5c 7d f9 4e 7e f4 3f
       -0.8237223452901411 1.280837034768198
0001d0 59 fa 58 25 d4 13 23 40 98 aa 1f 44 bd 83 19 c0
       9.538727919684947 -6.37865168040539
0001e0 cd 17 18 c2 88 44 fe bf 46 0b a4 d1 92 1a f3 bf
       -1.891731985263948 -1.1939876736730226
0001f0 f4 a7 c3 82 cd 71 f4 3f 7f 22 de b6 81 29 11 c0
       1.2777838809947726 -4.290533883388547
000200 91 fa 8f 4c b8 10 0f 40 f5 03 90 e6 c2 72 e1 3f
       3.8831640225828967 0.5452589514899261
000210 b2 ab 6b 55 a2 00 e2 3f e1 f1 d6 30 89 c1 f4 3f
       0.5625774067278739 1.297249975948141
000220 50 60 5f 7b 45 3e 18 c0 79 d7 26 6b 2b b2 0a 40
       -6.060811927505782 3.3369968768337768
000230 42 af 86 77 6b ed 28 40 06 f3 e9 8c f8 77 13 40
       12.463710532370559 4.867159082202084
000240 63 d9 ee 90 45 f8 07 40 7f 9b 55 60 b7 f5 40 c0
       2.9962264368906957 -33.91965870075273
000250 71 cb 19 f5 98 6b 2e 40 70 32 32 d6 70 80 03 40
       15.210151347540632 2.4377152189320483
000260 4a c1 b1 4d 62 82 fc 3f a6 cf 29 7d 81 7e e8 3f
       1.781832030767037 0.7654426045032678
000270 e8 e7 a8 45 86 47 13 c0 e8 80 2e d3 bb 7b df 3f
       -4.8198481449453325 0.49192710517128413
000280 68 21 c5 13 31 2f 11 40 fe f8 bc 03 fe 87 fe 3f
       4.296085652262583 1.9082012315771517
000290 06 45 74 87 28 4b e9 3f d6 8e 9d 73 8a 10 23 c0
       0.7904245992268961 -9.532306302054547
0002a0 90 6e a3 4d 89 0e 09 40 d1 0a 64 12 aa 7e 09 c0
       3.132097822713895 -3.1868478237896416
0002b0 46 03 6e 07 3b 80 c5 bf 0e c1 75 4f d6 a0 e9 bf
       -0.1679757868078246 -0.8008834411575962
0002c0 59 a3 24 26 94 de 23 40 38 ad 40 94 51 53 17 c0
       9.93472403714411 -5.831365887115048
0002d0 09 56 5a 07 37 39 e6 3f 5d c2 31 cd 9b 05 e9 3f
       0.6944842475519987 0.7819346435263231
0002e0 cf bd 8e 6f 47 16 d1 bf d5 33 eb 23 f9 4d f5 bf
       -0.2669848050527123 -1.331536426837592
0002f0 15 31 fc f1 82 3a d4 3f cd 38 8d 71 21 dd 10 c0
       0.31607125884399184 -4.215947889561176
000300 6d 1a 1d 2a 2d 26 e3 bf b5 25 46 3c 7e 9a f9 bf
       -0.5984102079899692 -1.6002180437520626
000310 98 8e 2b 9e 89 ab 26 40 80 88 0d 36 11 f5 14 c0
       11.335034315888421 -5.239323467803956
000320 b0 94 ed 24 b2 f9 f4 bf 02 c2 56 04 6b a0 d3 bf
       -1.3109609072210269 -0.30666613982887736
000330 5c 60 12 e7 0b de f3 bf 0f b6 1d b0 c7 cf 09 40
       -1.2417105699769513 3.2264550932948235
000340 a2 e7 d3 22 e5 d6 c8 bf 3a dc f0 54 dc f1 0c c0
       -0.1940580768639935 -3.618096030807945
000350 41 a7 b6 a3 14 89 00 c0 ef 14 96 86 61 b0 ff bf
       -2.0669338979832053 -1.9805617577815686
000360 8a e7 c9 b7 39 c1 25 40 10 8e 8f c7 80 c1 07 c0
       10.87739347781805 -2.969483908718537
000370 e8 a9 41 51 67 04 05 40 01 1a 62 a7 4d d7 01 c0
       2.627150187317273 -2.230128581696818
000380 57 8f 3a 64 87 51 e7 bf 57 2d 7f 06 84 89 08 c0
       -0.7287022550194518 -3.067146349674356
000390 87 ba b7 a2 1c 3b 11 40 4f 4a d7 87 30 ff ec bf
       4.307726423705964 -0.9061510708946318
0003a0 31 14 8a 32 7c 77 f9 bf 16 89 68 ab fc f3 e9 3f
       -1.5916711782640613 0.8110335681742835
0003b0 0e 0c 4d 70 05 6b 19 40 26 14 7f ac 57 2d 17 c0
       6.354512934401113 -5.794279761558789
0003c0 57 11 82 32 92 74 16 c0 be 77 90 25 2a 63 01 c0
       -5.6138389484297795 -2.173420232268625
0003d0 f3 c8 3f 13 20 c2 fd 3f c0 2c fb 38 be 1c 19 40
       1.859893870536834 6.2780693915657935
0003e0 7c 96 f5 b0 c2 dc 11 c0 f1 83 d2 91 07 29 0c 40
       -4.4655864381689945 3.5200339691514206
0003f0 5b 57 0e cf 3f 71 d0 3f 92 51 15 3a 3c 21 eb 3f
       0.25691218586267944 0.8478070387305243
000400 05 6c a4 67 a8 76 22 c0 91 32 16 46 34 fc 13 40
       -9.23175357706169 4.996293158631162
